models/mnist1_model.pth (torch, 313784 bytes, 4 tensors)

hidden.weight f4 [98, 784]
00000000: 0030 8cb9 b6f2 9c3c accc f0bc 9350 d7bc
00000010: ce5e 61bc 10e9 1c3c 407f 39ba 12fa e73c
00000020: 30b6 4fbb 10d6 1a3c 7cd6 30bc a409 e6bb
00000030: 2159 08bd afd9 b2bc 9c35 71bc 0068 ad3a
00000040: dc53 673c ae8c af3c a058 c6bc d8ce 7ebc
00000050: b088 543c a2f2 f23c 54d8 f0bb 46ef da3c
00000060: 70a1 bcbb 60aa 773b 4f75 043d 76b4 07bd
00000070: 502f b8bc 4a23 14bc b216 64bc 2ec8 fc3c
00000080: ca9c bdbc 3e1c 84bc 4fe2 bcbc 913b 03bd
00000090: a1ff 85bc b9ae 123d 6a19 a13c f33d bc3c
000000a0: af5a 343c ecee 13bc 1047 393c 57cc cdbc
000000b0: 4882 a8bc 9deb 73bc 3126 c63c f243 b43c
000000c0: 82a2 78bc cdef 82ba 9cdb be3c 678a 133d
000000d0: 983b 683c e818 9e3b 482a c43c 4a44 acbc
000000e0: 6813 da3b 0ed5 e2bc f8c6 cabc 3a23 97bc
000000f0: 8e8b 843c f979 753c 3cb1 95bc 095c 743c
00000100: dac8 e13c ce32 263c 3b41 b03c ebce 143d
00000110: 9db3 563d a37e 6f3d 127d 2e3b 66cf b73c
00000120: c55c 463d 5ce2 833d 1c96 633d 5f2e 323d
00000130: 61ca 683c a51d d5bc a7c7 bc3b 0ee5 adbc
00000140: 3ca2 07bd f601 023d a675 de3c 92ec 11bd
00000150: 780b db3b 7825 c5bb dd48 c2bb 65f7 85bc
00000160: 742d 653c f40d b3bc 3e95 4e3c 4ef4 ce3b
00000170: 788e 6f3c 461d d73c 2c10 57bc 394a 81bb
00000180: 6a8a 1e3d 38c6 313d aa34 a7bc 1646 a8bc
00000190: d8ab 6c3d 4081 323d e37f 2b3c 07ca 0c3c
000001a0: 3fd0 9bbc 8950 aa3c 32ac 58bc 42e5 b7bc
000001b0: 78b5 8eb9 d832 ba3b 4551 64bc f89a ad3c
000001c0: 8a0a b2bc 3bbc 043d 1b38 c73c b60c f7bc
000001d0: e248 2abc d80c 71bc 76dd c3bc 0d9f 02bd
000001e0: b7da c7bc 3432 bfbc 3e03 0abd 9f28 4abc
000001f0: f105 2dbd d8ac d0bc 99db bb3c fc07 693c
00000200: 6f66 0d3d 56c2 fb3c 281a de3c effa 4d3d
00000210: c58b a53c 6968 083d d774 143d 91dc 6ebb
00000220: 921a e83a d154 083b 90c4 363c d5af c33c
00000230: 8f91 0a3d 9acc b93c 1626 0b3d 9a1a b0bb
00000240: b6dc 2ebd c581 61bd c6f2 18bd 8f84 55bd
00000250: fbd2 23bd 529e 24bd 83ef 82bd bf7d 92bc
00000260: 3011 af3b 707f 1a3c e6a5 893b 5872 00bc
00000270: 0114 883d 84a6 2b3d 0d29 663d da8f 603d
00000280: 3d08 703d 3746 373d 4569 2ebc a7bd 06bd
00000290: 0f00 09bc b624 e23b 0c42 4dbc 0d32 663c
000002a0: 6baa 03bd 70f5 1dbb 6cd0 013d 6de1 b2bc
000002b0: eb32 573b 96ae 55bd b6c4 d4bd ed42 cc3b
000002c0: eff4 71bc fa74 dbbc a857 2a3c 8c73 b9bc
000002d0: e2e4 323b 4f4c aebc 314b 9c3c 679e 083d
000002e0: b284 023d 6aeb 8f3c 3c81 13bc d6fe ff3c
000002f0: 39ef f1bc 1e12 723c 0ec0 e63c 58ea d13c
00000300: 9cc7 dfbc ba2f 343b daa4 f5bc 5599 98bc
00000310: a57b aabc 3d05 483c 0edc a7bc c768 71bc
00000320: 1009 0dbd fd0d 15bd 9570 88bd eed3 03bd
00000330: 69e5 083b e8dd c93b a628 20bc dbd1 a23c
00000340: 9c94 80bc 0889 fcbb 485c afbc eab2 8d3c
00000350: f584 c83a 4ef8 2cbd bb8f 1e3c 56ea 65ba
00000360: 5fbd 88bd 3a1c 1bbd bf73 133d b77b 10bd
00000370: b927 eebb a0da a33c 5fea 633b 8152 0d3b
00000380: 2951 fdbc 8250 913c 3d76 d1bc 959d 83bc
00000390: 6b7f ebbc 2ba6 d2bc eb82 8abc 1fd0 063d
000003a0: c18a 2b3d 1415 fc3c d963 9f3c 38ac 12bd
000003b0: e715 13bb d30c b4bc c031 32bd 40ba cbbc
000003c0: bd83 31bd ae2c 2ebc b5fd 5fbd 76fb 33bd
000003d0: 2130 20bd 8302 b1bd 86b4 b53b 9b22 e8bc
000003e0: f628 013b 7c32 91bc 626f 85bc b248 a33b
000003f0: 7438 f23c 061f 2cbc 0ce2 b3bc 5ed2 18bc
-0.00026738644 0.019158702 -0.02939447 -0.026283538 -0.013755513 0.009577051 -0.00070761517 0.028317485
-0.0031694286 0.009450451 -0.010793325 -0.007020192 -0.033288125 -0.021832315 -0.014722254 0.0013229847
0.014119115 0.021429386 -0.024212182 -0.015552245 0.012972042 0.029656712 -0.007350007 0.026725423
-0.0057565495 0.003779076 0.032338437 -0.033131085 -0.022483498 -0.009041617 -0.013921427 0.030857172
-0.023146052 -0.016126748 -0.023057131 -0.03203923 -0.016357245 0.03581116 0.019665439 0.022978758
0.011007949 -0.009029131 0.0113084465 -0.02512185 -0.020569935 -0.014887718 0.024188133 0.022005055
-0.015175464 -0.0009989679 0.023298077 0.036020663 0.0141743645 0.0048247464 0.023945943 -0.021028657
0.0066551454 -0.027689483 -0.024753079 -0.018449415 0.016179826 0.014982694 -0.018272988 0.014914521
0.027561594 0.010143949 0.02151548 0.036330145 0.052417386 0.05847038 0.002662484 0.022437762
0.048428316 0.06439659 0.055563077 0.043501254 0.014208407 -0.026015112 0.005761105 -0.021227386
-0.033113703 0.03174015 0.027155709 -0.035626 0.006684717 -0.0060164295 -0.005929096 -0.016353318
0.013987888 -0.02185724 0.012608824 0.0063157445 0.01462137 0.026259076 -0.013126414 -0.0039456156
0.03870622 0.043401927 -0.020410854 -0.020541232 0.05778107 0.043580294 0.010467502 0.008593089
-0.019020198 0.020790355 -0.013224648 -0.022448186 -0.00027219555 0.0056823306 -0.013935392 0.021192059
-0.021733541 0.032406073 0.024318745 -0.030157428 -0.010393353 -0.014712535 -0.023909312 -0.031889964
-0.024396284 -0.023339368 -0.0336945 -0.012338786 -0.042241994 -0.025473043 0.02293186 0.014223095
0.034521516 0.030732315 0.027112082 0.050288137 0.020208249 0.0333027 0.03624424 -0.0036447386
0.0017708114 0.0020802508 0.011155263 0.023887554 0.03383022 0.02268057 0.03397187 -0.005374265
-0.042690955 -0.0550554 -0.0373409 -0.05212837 -0.03999613 -0.04019005 -0.063933395 -0.017882226
0.005342625 0.0094297975 0.004200685 -0.007839762 0.066444404 0.04190685 0.056191493 0.054824688
0.058601607 0.044744696 -0.010645215 -0.03289571 -0.00836183 0.006901349 -0.012527954 0.014050019
-0.032144945 -0.002410259 0.031692907 -0.021836007 0.0032836746 -0.05216845 -0.10389082 0.006233564
-0.014767869 -0.026789177 0.010396875 -0.022638105 0.002729707 -0.021276621 0.019078823 0.03335419
0.03186483 0.017568309 -0.00900298 0.031249445 -0.029533016 0.014774827 0.02816775 0.02562444
-0.02731686 0.0027494268 -0.029985834 -0.018627802 -0.020810911 0.01220828 -0.020490672 -0.0147344535
-0.03443247 -0.036390293 -0.06662098 -0.032184534 0.0020888692 0.0061604865 -0.009775316 0.019875458
-0.015695862 -0.007706765 -0.021406308 0.017297227 0.0015298413 -0.04222899 0.009677823 -0.00087705755
-0.06676745 -0.037868716 0.035999056 -0.035274234 -0.007267919 0.02000171 0.0034777147 0.0021564069
-0.03092249 0.017738584 -0.025569076 -0.016066352 -0.028747281 -0.025714 -0.01690813 0.032913323
0.041880373 0.03077177 0.01945679 -0.03580877 -0.0022443475 -0.021978771 -0.043504477 -0.024869084
-0.043338526 -0.01063077 -0.054685313 -0.043940984 -0.0391084 -0.08643057 0.0055452017 -0.028336814
0.0019708253 -0.017724268 -0.016288463 0.004983031 0.029567935 -0.010505443 -0.021958373 -0.009327499

hidden.bias f4 [98]
00000000: 238c 9cbd c403 693e 8339 983d 7b4c 89be
00000010: 9134 493e 6202 5d3e a667 663e 2f27 b33c
00000020: 155a 9e3e 3bc8 9cbd 3ba2 e6bd 3aa5 b8bc
00000030: 8bc8 a93d 5af9 47be 5fd8 063e 82f0 2abe
00000040: f79a 253d 71cd 563c 03d5 153e 7064 063d
00000050: a914 d43d 33db 02be 313f 35ba 93af abbd
00000060: 6ec2 5f3e 746f b93d b5f2 a03e 4651 96bc
00000070: 7fa7 1a3e 8491 523d 6f8e 073e 88d5 a03e
00000080: 29e3 e1bc ff63 dfbd 96dd 443b 7699 9dbc
00000090: 54e9 cd3d 8762 af3e 22d5 bd3d 3c34 69be
000000a0: 398c fbbd 0518 67be d692 6cbd ecdc a93c
000000b0: 1dcf 283e c9ba b53d 3989 383d 84ff 94bc
000000c0: e0fc d2bc 68a1 623d 0703 3fbe 15e9 a53e
000000d0: 2f1d a3bc d62e c13d 2221 99be 0366 efbd
000000e0: 37af d43d 8e1a 0c3d e4d6 183d fcb2 4e3e
000000f0: d448 7cbd af41 78be b88f e13d a2fe 6cbd
00000100: 9dca 84ba 980f 9b3d 8d89 753e 18e8 0c3e
00000110: 31ea 303e b7d9 613e 5516 bdbd 7687 bb3d
00000120: fc15 5b3e 0b96 15be 9aa0 4b3e b3d2 303e
00000130: be5b 463c 0137 47be 7f0f fbbd ff0e 8d3e
00000140: fbbe 24be 0476 1abb f911 ebbd 2489 4d3e
00000150: c61c bdbb 7b2a a4bd 0a78 08be 0f30 aa3d
00000160: 40fc 233e 272c 263d 6a21 8b3e 0c83 12be
00000170: 9c70 153d 6815 bcbd b615 353e b469 10bd
00000180: ad31 18be 8e5d ddbc
-0.076439165 0.22755343 0.074328445 -0.26816162 0.19648959 0.2158294 0.22500476 0.02186927
0.30928102 -0.076553784 -0.11261412 -0.022539724 0.08290204 -0.19528714 0.13168477 -0.16693309
0.04043099 0.0131105045 0.14632039 0.03281063 0.10355503 -0.1277893 -0.00069140183 -0.083830975
0.21851513 0.09054461 0.3143517 -0.018349301 0.15102957 0.051408306 0.13237928 0.3141291
-0.027574139 -0.109077446 0.0030039302 -0.019238215 0.100542694 0.34254858 0.092691675 -0.22773832
-0.12282605 -0.22567756 -0.05775722 0.020735227 0.16485257 0.08873517 0.04505274 -0.018188246
-0.025755346 0.05532971 -0.18653499 0.3240439 -0.019911377 0.09432761 -0.2990809 -0.11689379
0.10384982 0.034205012 0.03731431 0.20185465 -0.06159289 -0.24243806 0.1101374 -0.057860024
-0.0010131184 0.07571334 0.23978253 0.13760412 0.17276837 0.22055708 -0.09232775 0.091566965
0.21395105 -0.14608018 0.19885483 0.17267875 0.012106834 -0.19454576 -0.12258815 0.27550504
-0.16088478 -0.0023568878 -0.114780374 0.20071846 -0.0057712523 -0.08015915 -0.13327041 0.08309948
0.16014194 0.04056945 0.2717393 -0.14307803 0.036484346 -0.091837704 0.17684063 -0.035257056
-0.148627 -0.02702215

output.weight f4 [10, 98]
00000000: a285 d9bc 105b f83e 951d 73bd 7cc5 a13c
00000010: 1e97 bb3e 9d07 b2bd 6073 a13e 4285 febe
00000020: 3f7a ebbe 625d b8be b675 8f3e a801 0fbf
00000030: 51eb 6c3d f5c4 14bf ac4f 6ebe 2311 f9be
00000040: 06e7 813e 1d35 b03e f45e a1bd 85ec 973c
00000050: 64af 573e 6ab6 a8be 98ba 263d 5ae9 7dbe
00000060: 8df6 d33e 4986 e23e daae b7be e78a d23e
00000070: 3bbb 45be 0bce abbe 5420 d2be 4413 3e3e
00000080: 8204 a43e 07f0 cdbe 8897 a3bd e7ba a43e
00000090: 263c a5be 78d1 5d3e 0985 8b3e c131 efbe
000000a0: e504 8c3e 6d44 8a3e cbb0 593e bc6a c73e
000000b0: bb98 683e 9d73 78be 67a8 19bd 5695 8b3c
000000c0: 50aa 3bbe c3ad 81bd c0d0 84be 3080 a83e
000000d0: 7671 11be ec35 1dbf 042b bb3e a333 993e
000000e0: 6d5d ea3e 7e5f 5dbe e9bb 1abf 86ed 893d
000000f0: be6a 94be e568 86be a6de 8e3e a269 01bf
00000100: e123 ab3e 5996 b5be 22dd a33e d10d 89be
00000110: a7ac 92bd ae27 15be 558c 2c3e 3494 9ebe
00000120: 151b 85be f133 d63d 50fb fe3e b2c7 9bbe
00000130: 05ed 593e 266f 983e 995e b8be 95c1 98be
00000140: db06 42be e4ce 4abe 446a 8c3e cda4 9c3d
00000150: 84bf 6d3e 61cb 0abf f7f2 b03e 53e3 eebe
00000160: 672b bc3d 9c9f 05bf 2917 e13a 6aba acbe
00000170: 3de8 6f3e 589d 05bf 2b2a 96be 3ce6 2b3e
00000180: 197c e4bd 4a8c 59be 00e0 933e 20cb 02be
00000190: 3748 583f 909d 6b3e a762 82bd 2166 d73e
000001a0: e47c d4be c349 913e 9535 a13e 2505 923e
000001b0: 74dc 92be cd7b 3e3e 3037 6a3d 7ecb abbe
000001c0: 455b d3be 4a10 29be 3dd1 90be fe9a b2bc
000001d0: b828 ebbe 79d5 ea3e 3f2f 81be a9f7 b33e
000001e0: f9f0 21bd 4760 95be 0dfe 5ebe 2e37 3abd
000001f0: db16 ac3e 3b0e 9abe 8d74 11be f3c1 b1be
00000200: 08c7 64be c76a 8ebe 7684 c7be 2dc1 a83e
00000210: 3f03 b3be 9e2b 5fbe 5d6a 91be 58c4 ea3e
00000220: bb5f 39be 21d4 c13e 68ee 92bb ce02 c4be
00000230: 86cc c6be c80f b53d dae1 0dbf f13b d23e
00000240: aa4c bfbd 3d65 393d 1082 c43e 67bf 6e3e
00000250: c2cf df3e 4168 253d 248c ba3e 79b7 233f
00000260: 564f 07be ef4d d6be 9068 a1be be8a e1bd
00000270: b49b d6be 557d d83e fb1f a7be aa29 9a3e
00000280: b321 96bd 51e9 aa3e e3c7 b7be 2926 063f
00000290: f5d3 953e 63ce 133f 9d71 c2be 15c2 59be
000002a0: 515c 3b3e 6d10 03bf a40f 703e b9ec febe
000002b0: 46fc 27be 7a38 a83e b3b4 9dbe e8c5 823e
000002c0: a327 0bbe 639f d63e b696 69be e1c1 08bc
000002d0: 129e debe 5ddc bebe e414 983e 2de7 cebe
000002e0: 8bd9 0ebe c2e5 933e 1555 cb3e c686 5d3e
000002f0: b4cc ab3e 3c4b 983e bed9 edbe bcc0 76bd
00000300: da55 a93e 51c2 e7bd 481b f9be 520a 2fbe
00000310: 4978 ad3e 996a 07bd 825d 1abe 14dd 95bb
00000320: 3e37 93be d74e ccbe 6abb a43e 8157 25bf
00000330: 2084 d13e f427 bbbe 34db aa3e 8d86 00bf
00000340: 80c2 8dbd 68d4 723e 067b e2bc d887 cdbe
00000350: c4e0 c63d 73bf 233e 0612 cf3c 92bd adbe
00000360: 7904 1d3f 15a5 da3e b9e8 b1be 130f 59be
00000370: e826 94be c9ff 263e 1716 d7bd c706 63be
00000380: 8cba 293d 00e9 f9bd 4b51 8bbe 1d93 c33d
00000390: d291 6c3e b97a be3e d493 9e3e 860b 893d
000003a0: 1373 013f 14aa 303d 68a7 a53d 22cf bb3e
000003b0: caf2 a6bd 63d4 893e 100b 5c3e 12a4 a63e
000003c0: 2613 d2bd cafb 9abe e075 c1bd b82c 80bd
000003d0: 3217 5abe ce18 edbe 4fc9 c53e 08ef 983e
000003e0: faf0 403e eeb4 143e 4279 103e 4e64 b43d
000003f0: 3cbf b33e 9fcb a2be 4330 96be d2cf 09bf
-0.026552979 0.48506975 -0.059354383 0.019747488 0.3663873 -0.08692858 0.31533337 -0.49711043
-0.45991704 -0.36008745 0.28019494 -0.558619 0.057841603 -0.5811303 -0.2327258 -0.48645887
0.2537157 0.34415522 -0.07879439 0.018545398 0.21063 -0.3295167 0.040705293 -0.24796048
0.4139904 0.44243076 -0.3587559 0.411216 -0.19309704 -0.33555636 -0.4104029 0.18562037
0.3203469 -0.4022219 -0.07987887 0.32173845 -0.32272452 0.21661937 0.27249935 -0.46717647
0.27347484 0.2700533 0.21258847 0.3894862 0.22714512 -0.24262853 -0.037514117 0.017038982
-0.18326688 -0.063319705 -0.25940514 0.329103 -0.14203438 -0.61410403 0.36556256 0.29922208
0.45774403 -0.21618459 -0.6044298 0.06734757 -0.28987688 -0.26251903 0.27904242 -0.5055181
0.3342581 -0.3546627 0.32004648 -0.26768354 -0.07161837 -0.14565918 0.16850407 -0.30972445
-0.25997224 0.10459126 0.4980111 -0.30425793 0.21281822 0.297723 -0.36009672 -0.2983519
-0.18947928 -0.19805485 0.27424824 0.07648621 0.23217589 -0.5421658 0.34560367 -0.4665781
0.09187966 -0.5219667 0.001717304 -0.33735973 0.23428436 -0.5219321 -0.29329047 0.16787046
-0.11156482 -0.21244922 0.28881836 -0.12772799 0.8448519 0.23009324 -0.06366473 0.42070106
-0.41501534 0.28376588 0.31486192 0.2851955 -0.28683817 0.18601914 0.057181537 -0.3355369
-0.4128057 -0.1651012 -0.28284636 -0.021802422 -0.45929503 0.45865992 -0.25231358 0.35149887
-0.03953645 -0.29175016 -0.217766 -0.04546278 0.33611187 -0.30088982 -0.14204617 -0.34718284
-0.2234155 -0.2781584 -0.38968247 0.3295988 -0.34963414 -0.21793982 -0.2840146 0.45852923
-0.18102925 0.37857154 -0.0044839866 -0.3828339 -0.38827914 0.08840901 -0.5542275 0.41061357
-0.093407944 0.045262564 0.3838048 0.23315202 0.43713194 0.040382627 0.36435044 0.6395183
-0.13213858 -0.41856334 -0.31525087 -0.11012791 -0.41915667 0.4228312 -0.32641587 0.30109912
-0.07330646 0.3338113 -0.3589469 0.5240198 0.29263273 0.57736796 -0.37977305 -0.21265443
0.18296935 -0.5119694 0.23443466 -0.4978998 -0.16404828 0.32855588 -0.30801925 0.25541615
-0.13589339 0.41918477 -0.22811398 -0.008347006 -0.43479973 -0.372775 0.29703438 -0.40410748
-0.13950174 0.2888623 0.3971335 0.21633443 0.33554614 0.297449 -0.46455187 -0.0602424
0.33073312 -0.1131636 -0.48653626 -0.1709378 0.33880833 -0.033060644 -0.15074733 -0.0045734737
-0.28753084 -0.399039 0.32174236 -0.64586645 0.40921116 -0.3655392 0.33370364 -0.5020531
-0.069218636 0.23713839 -0.027646553 -0.40142703 0.097108394 0.15991001 0.025277149 -0.33933693
0.6133495 0.42704073 -0.34747866 -0.21197157 -0.28935933 0.16308512 -0.1050226 -0.22170554
0.04143767 -0.12202644 -0.2721046 0.09549544 0.23102501 0.37203005 0.3097216 0.06691651
0.50566214 0.04313095 0.08088571 0.36681467 -0.08151777 0.2691985 0.21488595 0.3254705
-0.102575585 -0.30270225 -0.09446311 -0.062585294 -0.21297911 -0.46307987 0.3863015 0.29869866
0.18841925 0.14522144 0.14108756 0.08808194 0.35106838 -0.31795976 -0.29333696 -0.53832734

output.bias f4 [10]
00000000: 0c65 11be 1cdd 063f 251d e2be 2629 39be
00000010: 8f7e 563e ee18 573e 5ac0 45bd 12d2 6abd
00000020: 81bc 4b3d 7548 133e
-0.14198703 0.52681136 -0.4416286 -0.18082103 0.20946716 0.21005604 -0.048279144 -0.057329245
0.04974032 0.14383109
